hw1_1.pt (torch, 2632 bytes, 6 tensors)

linear0.weight f4 [4, 4]
00000000: 6a8f f0be f41d a3be 6853 9ebe 140d 2dbe
00000010: 3511 173f e9d8 89be 8e3b 75be 121c 163f
00000020: eecc fcbe 200b efbe 08cc 5d3f 2ba9 7a3e
00000030: 1875 8e3f e4ba 1dbf d23e 0dbf 499e 9fbc
-0.46984416 -0.3185879 -0.3092301 -0.1689952 0.5901063 -0.26923302 -0.239485 0.5863658
-0.493751 -0.46688175 0.8663945 0.24478595 1.1129484 -0.616133 -0.5517398 -0.019484656

linear0.bias f4 [4]
00000000: 8c1c 9fbe 001d d63e 10a7 f83e 699f 273f
-0.31076467 0.41819 0.4856496 0.65477616

linear1.weight f4 [4, 4]
00000000: 400c 14be 9c60 81be d869 efbd e872 a43e
00000010: 2c51 883e 5fdb 483e be9a 32bf b902 083f
00000020: 2664 e43e eb19 123f d150 b93e 5b93 043e
00000030: 0042 0e3d 4b1a 4cbe 6eb8 4e3f c72f 02bf
-0.14457798 -0.2526902 -0.1169011 0.32118917 0.2662443 0.19614933 -0.6976737 0.53129154
0.44607657 0.570708 0.3619447 0.12946837 0.03473091 -0.19931905 0.8075017 -0.5085415

linear1.bias f4 [4]
00000000: 8487 e9be f3c4 b83e 3916 df3e 01a3 95bd
-0.45611203 0.3608776 0.43571642 -0.07306481

linear2.weight f4 [2, 4]
00000000: 9eed 83be b390 bc3e 7421 a33e 236d 813e
00000010: e484 b63e 9c68 853e ebc3 f1be 3b8f 223f
-0.25767225 0.36829147 0.3186146 0.25278577 0.35648263 0.26056373 -0.47219786 0.634998

linear2.bias f4 [2]
00000000: 322a 263d 41a3 643e
0.040567584 0.22327901
